lib/chkpts/alice.pth (torch_old, 5932 bytes, 9 tensors)

fc_layer.weight f4 [32, 32]
-0.00033813826 -0.0019245095 -0.0005656555 -0.0030274729 -0.0013330074 6.343595e-05 -0.00018774463 -0.004655628
-0.0034101682 -0.00023266443 -0.00012266429 -0.0038755662 -0.00097616843 0.0006089873 4.840546e-05 0.0018862559
-0.00042434316 -0.009085658 0.002043092 0.0034343856 -0.0014827361 0.0058110966 -0.008281906 0.03488178
0.12990245 0.003902466 -0.06880907 0.0071483436 -0.007599515 -0.19732484 -0.052178334 -0.0034585542
6.7756846e-05 -0.0020367336 0.002763508 0.0023045589 0.0013106272 -0.0011190827 0.0009929669 0.0040028733
0.002188497 -0.00086003036 0.004606415 0.0011877305 0.00084709784 -0.003318115 -0.0064223246 -0.0031336308
-0.0017915234 0.011044394 -0.003372563 -0.0017015694 -0.00020223965 0.0034162418 0.0015188484 -0.03468254
-0.30830982 0.0015644958 0.09833099 -0.0060884813 0.0036977048 0.02740057 -0.104030855 0.009146718
0.00050781545 -0.007389583 0.003489959 0.0011941949 0.004632307 -0.0034778193 -0.0056902836 0.0018611578
-0.0036016323 -0.001195258 0.007250709 -0.0021758412 0.0019004435 -0.0014586224 -0.004774093 -0.0026266463
-0.0011756032 -0.0065559926 -0.001969507 -0.0016099069 5.1948314e-06 0.039701875 -0.0014752994 0.008505646
-0.0067700204 0.002081981 -0.010156224 0.0025386526 -0.0015534741 0.6469987 -0.22674298 0.0070920587
-0.00045844348 0.004377249 -0.0029894456 -0.0014297961 -0.007087774 0.0065805167 0.008020629 -0.0001135614
0.0030660569 0.0006197802 -0.0061232345 -0.0012093434 -0.0027652406 0.00035625356 0.002440254 0.0014301124
0.001406406 0.009102284 0.0005638804 0.0014847524 -0.00036165616 -0.054578066 -0.013964355 -0.007391389
-0.018301984 -0.00058551726 0.009592677 -0.0014694326 -0.0008548665 -0.97220355 -0.09598004 -0.014224574
-0.00019980871 -0.0076975883 -0.0025334442 0.00039790507 -0.0114474995 0.004606727 0.008040667 0.002715004
0.0028850555 -0.0034481701 0.004749445 -0.0051100664 -0.0043511153 -0.005203053 -0.009288796 0.0023237974
0.004266211 -0.0032567002 -0.00053848047 0.002366247 -0.00046010208 -0.05983464 -0.045192286 0.0022110909
0.01928681 0.00057144393 -0.007972806 0.0034054215 -0.00568537 0.102320544 0.4674336 -0.027868051
0.00019404588 -0.00033399634 -1.7952103e-05 0.0007065241 0.0017985485 -0.00013968567 -0.00035846484 -0.00042570036
9.131095e-05 -0.00029397372 0.0008850367 -0.0011279585 0.0021932367 0.00027052508 -0.0003008153 0.00038120293
-0.0014178671 0.00054492394 0.0001223416 -0.0015050777 -0.0004211391 -0.01694291 -0.16601796 0.0065245936
0.010471118 0.0010983789 -0.002336022 0.001384166 -0.0002816747 -0.04064065 -0.73316884 0.025802216
0.00010415355 -0.0008148002 0.0001318166 0.0009272503 0.0023823658 0.0028290334 0.0024204256 0.00043693275
0.0019551239 -0.0010809671 0.0043005943 0.004377052 0.0008965964 0.0020194352 -0.004748989 0.0011713719
-0.005524137 -0.007923117 0.008959251 0.00071449316 -0.0009479841 0.007633752 -0.0060860454 0.028514745
0.01879406 0.0020929384 0.0026851601 -0.014396958 0.004147677 0.025117883 0.13300069 0.17605789
9.9186545e-05 0.0010162744 -0.0011896234 0.0024257398 -0.00015752704 -0.0012122969 -0.0010458186 -0.00012547124
-0.00030806402 -0.0008968451 -0.0015929505 -0.003363979 -0.0010600262 -0.0014551289 0.004056113 0.00085493305
0.00088316476 -0.0022347684 -0.005162818 -0.00052184355 -0.0006707068 -0.0057642916 0.00037124867 -0.026037993
-0.007773829 -0.00096597907 -0.00017184546 0.0083345035 -0.12230698 -0.0019756637 0.024386432 -0.68785805
00000000: 2648 b1b9 d33f fcba 7f48 14ba 9168 46bb
00000010: 4eb8 aeba eb08 8538 51dd 44b9 3d8e 98bb
00000020: 217d 5fbb 62f7 73b9 729f 00b9 36fd 7dbb
00000030: 8ee5 7fba 72a4 1f3a f806 4b38 3f3c f73a
00000040: 607a deb9 03dc 14bc 65e5 053b 6e13 613b
00000050: 5e58 c2ba 036b be3b d5b0 07bc 33e0 0e3d
00000060: 2605 053e 84c0 7f3b c5eb 8cbd a73c ea3b
00000070: 5a05 f9bb 860f 4abe f3b8 55bd e9a8 62bb
00000080: ae18 8e38 b87a 05bb f81b 353b 1508 173b
00000090: 5ac9 ab3a 2fae 92ba 7126 823a 892a 833b
000000a0: e36c 0f3b a973 61ba 69f1 963b 9fad 9b3a
000000b0: c60f 5e3a bb74 59bb 5d72 d2bb 9a5d 4dbb
000000c0: 8dd1 eaba 8cf3 343c 3806 5dbb 3207 dfba
000000d0: 4b10 54b9 07e3 5f3b 1814 c73a 470f 0ebd
000000e0: c9da 9dbe c50f cd3a c261 c93d e281 c7bb
000000f0: 3155 723b 2977 e03c 210e d5bd 1edc 153c
00000100: eb1e 053a 5124 f2bb ccb7 643b 8886 9c3a
00000110: 9cca 973b 20ec 63bb 8f75 babb 18f2 f33a
00000120: 5d09 6cbb 34aa 9cba 5b97 ed3b 8f98 0ebb
00000130: 4d18 f93a 3f2f bfba ff6f 9cbb d023 2cbb
00000140: b316 9aba a7d3 d6bb d812 01bb 8303 d3ba
00000150: 434f ae36 6f9e 223d d55e c1ba 445b 0b3c
00000160: 0cd7 ddbb d871 083b 4a66 26bc 865f 263b
00000170: f19d cbba b5a1 253f 502f 68be 8064 e83b
00000180: 3e5b f0b9 076f 8f3b 93ea 43bb ff67 bbba
00000190: 8f40 e8bb 60a1 d73b f568 033c d027 eeb8
000001a0: e6ef 483b bf78 223a 6aa5 c8bb d582 9eba
000001b0: 0a39 35bb 8bc7 ba39 abec 1f3b 9c72 bb3a
000001c0: 2857 b83a bf21 153c 60d1 133a 069c c23a
000001d0: ab9c bdb9 408d 5fbd c0ca 64bc 7733 f2bb
000001e0: 0bee 95bc 667d 19ba 9a2a 1d3c fa99 c0ba
000001f0: 1f19 60ba 55e2 78bf 2f91 c4bd 300e 69bc
00000200: be83 51b9 0d3c fcbb 2408 26bb ea9d d039
00000210: 4b8e 3bbc 07f4 963b 00bd 033c 35ee 313b
00000220: 3313 3d3b b2fa 61bb 3ba1 9b3b 5872 a7bb
00000230: cd93 8ebb 5f7e aabb 0930 18bc da4a 183b
00000240: 92cb 8b3b 5d6e 55bb d028 0dba 0913 1b3b
00000250: db39 f1b9 2b15 75bd 8c1b 39bd f3e7 103b
00000260: 5fff 9d3c f4cc 153a 5fa0 02bc 7e2d 5f3b
00000270: 574c babb 6f8d d13d 7553 ef3e 8a4b e4bc
00000280: cb78 4b39 3b1c afb9 d997 96b7 0836 393a
00000290: 46bd eb3a 9678 12b9 56f0 bbb9 8930 dfb9
000002a0: 317e bf38 7c20 9ab9 cf01 683a 02d8 93ba
000002b0: 68bc 0f3b 43d5 8d39 bfb6 9db9 31dc c739
000002c0: bad7 b9ba 3ad9 0e3a d348 0039 0746 c5ba
000002d0: 55cc dcb9 dccb 8abc 9d00 2abe 42cc d53b
000002e0: 0d8f 2b3c 7bf7 8f3a f217 19bb e76c b53a
000002f0: bdad 93b9 cf76 26bd f4b0 3bbf 2b5f d33c
00000300: 036d da38 5198 55ba 4038 0a39 b712 733a
00000310: 7721 1c3b 4e67 393b 01a0 1e3b 1f14 e539
00000320: 8921 003b 3daf 8dba 00ec 8c3b 606d 8f3b
00000330: 9109 6b3a 8058 043b 689d 9bbb b888 993a
00000340: d203 b5bb f6cf 01bc d3c9 123c d34c 3b3a
00000350: 2382 78ba 8e24 fa3b 736d c7bb c197 e93c
00000360: 00f6 993c ae29 093b 83f9 2f3b 38e1 6bbc
00000370: 3de9 873b 05c4 cd3c 5531 083e 8548 343e
00000380: 5f02 d038 8334 853a 23ed 9bba 29f9 1e3b
00000390: d82d 25b9 efe5 9eba d913 89ba ee90 03b9
000003a0: a783 a1b9 411a 6bba 8dca d0ba 3476 5cbb
000003b0: 94f0 8aba 06ba beba 24e9 843b 961d 603a
000003c0: 2f84 673a 3175 12bb db2c a9bb 54cc 08ba
000003d0: 5fd2 2fba 62e2 bcbb 27a4 c239 a14d d5bc
000003e0: 9bbb febb c239 7dba 6a31 34b9 718d 083c
000003f0: 157c fabd 237a 01bb 0ec6 c73c 7717 30bf

fc_layer.bias f4 [32]
-0.32466733 0.13472757 -0.017038053 0.139524 -0.04808731 0.03384601 -0.11020512 0.005638911
-0.02999534 0.105193906 -0.05657881 0.049779225 -0.07494602 0.030352276 -0.05289703 0.027881004
-0.10445859 0.004250365 -0.097638786 0.013431069 -0.035597093 0.059117664 -0.08726838 0.024958665
-0.035222717 0.04324357 -0.07971329 0.01659398 -0.07069734 0.048740707 -0.024162829 -0.54294765
00000000: cc3a a6be 06f6 093e 6393 8bbc 61df 0e3e
00000010: 33f7 44bd 1da2 0a3d 39b3 e1bd 9dc6 b83b
00000020: cab8 f5bc e76f d73d 2fbf 67bd 4de5 4b3d
00000030: 4d7d 99bd 56a5 f83c 8eaa 58bd b466 e43c
00000040: 63ee d5bd a546 8b3b d8f6 c7bd fd0d 5c3c
00000050: 42ce 11bd 5d25 723d c4b9 b2bd 1d76 cc3c
00000060: b245 10bd 2b20 313d b940 a3bd 19f0 873c
00000070: c4c9 90bd 56a4 473d 20f1 c5bc 9efe 0abf

conv1.weight f4 [2, 1, 4]
0.5125666 1.2073276 -0.9590754 0.9822353 0.5448704 0.0039135073 -1.4310046 0.7666069
00000000: 9137 033f b689 9a3f f785 75bf c673 7b3f
00000010: a07c 0b3f e13c 803b 292b b7bf 5a40 443f

conv1.bias f4 [2]
-1.0179038 0.073479846
00000000: ac4a 82bf 9a7c 963d

conv2.weight f4 [4, 2, 2]
1.0793818 -1.0022018 1.7774339 -0.40137717 0.76839834 -1.869807 1.2186693 -0.6507853
-1.1668118 1.1960062 -1.7118526 1.102663 -0.5457738 1.1274341 -0.16072285 1.6693343
00000000: 2f29 8a3f 2648 80bf f482 e33f 4f81 cdbe
00000010: c1b5 443f d655 efbf 5bfd 9b3f de99 26bf
00000020: 175a 95bf bb16 993f fc1d dbbf 1024 8d3f
00000030: d5b7 0bbf c34f 903f 8894 24be bfac d53f

conv2.bias f4 [4]
-0.33211562 -0.20549808 0.22098653 -0.55531764
00000000: 0f0b aabe 176e 52be 4b4a 623e 4c29 0ebf

conv3.weight f4 [4, 4, 1]
-1.041126 -1.5620273 2.033169 0.4959553 -0.68124324 -1.9688799 0.788653 1.2942907
0.94619834 1.9586635 -1.4047854 -0.295578 -1.0665647 -1.3459467 1.4739434 0.22821112
00000000: 9e43 85bf 83f0 c7bf 711f 0240 daed fd3e
00000010: f565 2ebf 4204 fcbf 2ae5 493f 51ab a53f
00000020: 0e3a 723f 7cb5 fa3f 02d0 b3bf 0056 97be
00000030: 3185 88bf fb47 acbf 2daa bc3f 2db0 693e

conv3.bias f4 [4]
-0.37223014 -0.22017987 -0.12093784 0.12400984
00000000: f394 bebe d576 61be 42ae f7bd dff8 fd3d

conv4.weight f4 [1, 4, 1]
-1.1242136 -0.7153695 1.3587629 -0.8893686
00000000: 3be6 8fbf 7522 37bf f1eb ad3f a9ad 63bf
