lib/chkpts/bob.pth (torch_old, 5932 bytes, 9 tensors)

fc_layer.weight f4 [32, 32]
00000000: f659 4440 fd4f dd3f f56d 993f 1752 8d3e
00000010: fbac e03f 8aa1 81bf de6b 223f b85e c2be
00000020: 2ba0 1b3f 8eb8 02be 0e68 00bf 9c81 7a3f
00000030: 2113 30bf bc75 10be 6820 31bf 1607 823e
00000040: 3433 913d 772f acbc bd54 113d b473 08be
00000050: d0d9 78be 81c4 c9bb b30e 3dbe 7861 773e
00000060: ec14 ce3e 2a80 e5be 77d5 28be 8d02 b0bc
00000070: fe3d 10bf 93c6 4a3f db19 ee3e 80b4 993d
00000080: dec6 5840 dc80 b63f 1f74 543f 0a13 b33e
00000090: 3b10 db3f bff3 79bf 8159 913f bd3f 43bf
000000a0: 5070 fd3e 4767 993c 4e78 16bf fbfe 993e
000000b0: b930 4dbf f579 f23d f8cd b9bf 2a15 363e
000000c0: bf10 d0bd 4c23 2abd a2f3 203d 61cb 84be
000000d0: 2129 38be daeb 683b bde5 a6be d9b3 8b3e
000000e0: cdfa de3e c1fe 13bf 158c 59be 5709 003d
000000f0: 88c0 13bf 24b3 353f 6053 9b3e 1ae2 cc3d
00000100: 04c1 773f f147 87bf 9af8 b03f f4fc 633e
00000110: e896 343f 5db7 59c0 36cf 833f d44b 16c0
00000120: 3dd1 d23f 9df9 db3f 99e0 0cc0 231e 80c0
00000130: 109e 1f3f a72d 543f e024 e4bf 170b 10bb
00000140: 8383 7fbf 807e 523d c62a e6be 9c09 28bf
00000150: faa4 10bf eb7b c8bd 2735 abbe 67f9 1a3f
00000160: 4ade 833e 32c2 373e 1203 82be 45bd 303e
00000170: aefb bfbe fccc f0be 17ac 0d3f f881 683d
00000180: 0040 b0bf 1393 f4bf 65a7 753f 6d34 4b3e
00000190: dec5 32bf 39b3 24c0 1655 f83e 4e04 2dbf
000001a0: 9758 393f 1e80 1140 57a7 a1bf fa9f 3bc0
000001b0: ceb7 c13e 7881 6e3e e080 aebc 85b1 4b3f
000001c0: 09be 3dbf daf2 7fbc f7c1 febe 5641 82be
000001d0: 55f8 72be baf9 22bd ca80 aabd ed65 c93e
000001e0: ae36 58bd d2a3 053f ebea 7b3d b183 103d
000001f0: 5637 323e df09 65bf 5eb8 b63e c8bd 6c3d
00000200: d60c 7d3f 7865 1ebf a61c d63e 6be2 3640
00000210: 5a16 cc3e dffd c7bf 4023 b33f 8883 c43f
00000220: 3a67 fb3f cee5 d4bf 138e 59be 6220 f4bf
00000230: 1b0a b43f 5c66 fcbf 5f8e 183f 5ca5 1e40
00000240: 366a 0cbe ad6d 85bd c0f1 ab3e 8aed 1f3f
00000250: 1a8b 46bf 41ee 7c3d 304b e0be 3a6d 0c3f
00000260: c273 213e 42f2 063f 6b2e bb3e 2720 e3be
00000270: ec20 d5bd 3310 80be 3201 083e 01a7 343f
00000280: 3215 d23f efd9 20be 3b40 15bf 3296 1040
00000290: 2e91 3e3e cd46 3e3e 4783 2a3f 1d74 ed3f
000002a0: 6894 9e3e 0b44 30c0 080e c83e ef6f 1e3f
000002b0: 3769 363f e1c9 f6bf 1dad 0e3f fb6c bd3f
000002c0: 7de1 c43e b65e f0bc f5c8 213f 291d 263f
000002d0: e3d0 45be 580c d73d 9b64 65be 9f94 213e
000002e0: a81e 233e 39f4 ed3c 4835 283e 0303 dbbe
000002f0: 5469 39bd 9a93 30bd 5c4b 5fbe acb3 103f
00000300: 14c3 a53f b12f d0bf 7c96 573f c63c 08c0
00000310: 936a 963f 9d8d 35bf a10d fabf 712d 923f
00000320: 143f 16bf 2577 e6bf f54c 65c0 6a85 49bf
00000330: 05a6 4f40 5685 aabf af42 c13e 442e d63f
00000340: e49f 293f c994 3c3e dfb3 dd3e 58bb c03e
00000350: e62d 503e 1981 883c 3519 363f 5d25 3d3e
00000360: b8d4 79bc d6f1 883e 8af1 fcbc 9f16 5abe
00000370: 8787 aabe 071e 38bf d683 bd3e 52b8 0dbf
00000380: 2471 d7bd f975 fbbe 06d1 353f c700 19c0
00000390: dd27 023f f3cb 25bd 61f9 00c0 b356 b43d
000003a0: a7ef cabf ce3d b1be b9b7 4cc0 51d6 613e
000003b0: b329 af3f 1d6c 693f f82f 90bd a99b 033f
000003c0: 2940 d83e f5cd 2e3e 8b93 323d fcc9 c43c
000003d0: 7285 1f3f 9ced c9bb 45a9 2d3f b3b9 3cbd
000003e0: 2dc7 00be ea31 703c 44c6 1bbe 50ff 753e
000003f0: 5a2d e6bd 5047 79be 05f4 b73e faa7 1ebf
3.0679908 1.7290035 1.1986681 0.27601692 1.755279 -1.0127423 0.6344584 -0.3796289
0.6079127 -0.12765715 -0.50158775 0.9785402 -0.6877919 -0.14107412 -0.69190073 0.2539603
0.07089844 -0.021018727 0.035481203 -0.13325387 -0.24301839 -0.0061574583 -0.18462639 0.24158275
0.40250337 -0.44824344 -0.1648768 -0.021485591 -0.5634459 0.7920925 0.465041 0.07505131
3.387138 1.4258075 0.82989687 0.34975463 1.7114328 -0.9763755 1.135544 -0.7626913
0.4949975 0.018726004 -0.5877732 0.30077347 -0.8015247 0.11839668 -1.4515982 0.17781511
-0.10159444 -0.041537568 0.039294846 -0.25936416 -0.1798444 0.003554097 -0.3259715 0.2728565
0.4355072 -0.578106 -0.21244843 0.031258907 -0.57715654 0.7097647 0.30337048 0.10004063
0.96778893 -1.056883 1.3825867 0.22264463 0.70542765 -3.4018166 1.0297611 -2.3483782
1.6470104 1.7185551 -2.2012084 -4.003679 0.6235056 0.8288216 -1.7823753 -0.0021979266
-0.99810046 0.05139017 -0.4495451 -0.6563966 -0.56501734 -0.097892605 -0.3343899 0.6053681
0.2575553 0.17945173 -0.25392967 0.172597 -0.37496704 -0.4703139 0.55340713 0.056764573
-1.3769531 -1.9107383 0.9595855 0.19844218 -0.6983317 -2.573439 0.48502415 -0.67584693
0.724008 2.2734447 -1.2629193 -2.9316392 0.37835544 0.23291576 -0.021301687 0.7956775
-0.74118096 -0.015621865 -0.49757358 -0.25440472 -0.23727544 -0.03978894 -0.08325346 0.39335576
-0.05278652 0.52203095 0.061503332 0.03528184 0.17403921 -0.8946819 0.35687536 0.057798177
0.9884771 -0.6187358 0.41818732 2.8575695 0.39860803 -1.562435 1.3995132 1.535264
1.9640877 -1.6632631 -0.21245603 -1.9072382 1.4065584 -1.9718738 0.5959224 2.4788427
-0.13712391 -0.065150596 0.33582878 0.6247183 -0.77556 0.061750654 -0.43807364 0.54854167
0.15766814 0.52713406 0.36558852 -0.44360468 -0.1040667 -0.2501236 0.13281706 0.7056733
1.6412718 -0.15708135 -0.5830113 2.2591672 0.18610069 0.18581696 0.66606563 1.855106
0.309726 -2.754153 0.39073205 0.6188955 0.71254295 -1.9280359 0.557329 1.4798883
0.38453284 -0.029342037 0.6319726 0.64888245 -0.19317965 0.10500401 -0.22401659 0.1577935
0.15929663 0.029047118 0.16426575 -0.42775735 -0.045266464 -0.043109514 -0.21806091 0.5652416
1.2950158 -1.6264554 0.84213996 -2.1287093 1.1751274 -0.7091921 -1.9535409 1.1420118
-0.5869 -1.800511 -3.582822 -0.787192 3.244508 -1.3321941 0.37746188 1.6732869
0.662596 0.18416132 0.43301293 0.37642932 0.20330009 0.016663121 0.7113221 0.18471284
-0.01524847 0.26747006 -0.030876894 -0.21297692 -0.33306524 -0.7192082 0.37014645 -0.55359375
-0.10519627 -0.49113443 0.7102207 -2.3906724 0.50842077 -0.040477704 -2.0152209 0.08805599
-1.5854386 -0.34617466 -3.1987135 0.22054411 1.36846 0.9118059 -0.07040399 0.51409394
0.4223645 0.17070754 0.04359774 0.024022095 0.62312996 -0.0061623584 0.6783641 -0.046075534
-0.1257598 0.014660338 -0.15212351 0.24023175 -0.11239119 -0.2434361 0.3592836 -0.6197506

fc_layer.bias f4 [32]
00000000: 6d02 1e3f 664e 023f 6b68 25bf 89b5 28bf
00000010: 72b9 513e 994e ae3e a36c 1ebf c80c 2dbf
00000020: f98a a33e 1720 d53e d69d 8abf a071 62bf
00000030: 4553 d73e 1558 5b3f 8015 023f 6fe7 0e3f
00000040: 5807 253f ecc7 7f3e 47ee 7abe db14 b4be
00000050: b3c5 47bf ce4c 22bf 9933 513f 0f0c 773f
00000060: 2cdb 42be 515a 0dbf c593 763d 935c 8d3d
00000070: cdf6 0ebf e061 e9be 4165 eebe b81a 193f
0.6172245 0.50900877 -0.64612454 -0.65902 0.20480898 0.3404434 -0.61884516 -0.6759763
0.31941965 0.41626045 -1.0829418 -0.8845463 0.42055717 0.8568128 0.50814056 0.5582189
0.6446433 0.24978608 -0.24504958 -0.3517216 -0.7803604 -0.63398445 0.81719357 0.96502775
-0.1902892 -0.55215937 0.060199518 0.06902423 -0.5584534 -0.45582485 -0.46561626 0.59806395

conv1.weight f4 [2, 1, 4]
00000000: c589 ad40 304f 6b40 6898 50bf be58 68c0
00000010: 20f9 a4c0 a44f 83c0 a13d a23f 3761 6040
5.4230676 3.6767082 -0.81482553 -3.6304164 -5.155411 -4.1034718 1.2675058 3.5059335

conv1.bias f4 [2]
00000000: 2246 fcbf b257 f23f
-1.9708903 1.8933012

conv2.weight f4 [4, 2, 2]
00000000: 434f a1c0 3094 68c0 3984 a040 9e82 6c40
00000010: 5448 9d40 e099 7540 5f17 a2c0 371f 80c0
00000020: 0e3f a0c0 6465 89c0 1f6d 9340 d863 7240
00000030: ed71 9dc0 988f 72c0 15b2 a340 0c93 8140
-5.0409255 -3.6340446 5.0161405 3.6954722 4.915079 3.8375168 -5.065353 -4.0038104
-5.007697 -4.293627 4.6070704 3.787344 -4.920157 -3.7900143 5.1154885 4.0492

conv2.bias f4 [4]
00000000: 93f4 133f 51d2 f2be 0dc7 8a3f c0dd d03e
0.57795066 -0.47426084 1.0841995 0.40794182

conv3.weight f4 [4, 4, 1]
00000000: ceb3 b4c0 3e3a c040 b49f b3c0 3e28 b2c0
00000010: 687e a6c0 b895 b640 a53b 99c0 fe44 aec0
00000020: 03c9 ad40 bf45 b4c0 0d2e ae40 0a0b ac40
00000030: 4b7a a6c0 626c bb40 f7b9 b1c0 5abe b2c0
-5.646949 6.0071096 -5.613245 -5.5674124 -5.2029305 5.705776 -4.788531 -5.445922
5.4307876 -5.633514 5.4431214 5.3763475 -5.2024283 5.8569803 -5.553951 -5.5857363

conv3.bias f4 [4]
00000000: e96b 5d40 e799 4040 054c 5ac0 9a01 5540
3.4597113 3.0093935 -3.4108899 3.3282228

conv4.weight f4 [1, 4, 1]
00000000: 40c7 ca40 ab70 c940 9de1 cac0 c6ef c340
6.3368225 6.2950034 -6.3400407 6.123019
