lib/chkpts/eve.pth (torch_old, 3884 bytes, 9 tensors)

fc_layer.weight f4 [32, 16]
00000000: 254f 17c0 9a54 53bd 7017 e63e 72a1 153e
00000010: fc8c adbd c125 3d3f 9063 9abd b050 c5bd
00000020: dd07 e4be b0e8 77be e343 31bf afe5 8a3e
00000030: f430 f33e 1b71 a6be 2e7f 3d3f eabe eebe
00000040: 689d 4bc0 a4f4 433e a1fc 3abf 7719 e1be
00000050: d551 b2be 022a 7b3d 42f1 463e 26d2 b03d
00000060: 2e0e 81be 9d45 20bf d1f8 c8be 976e 1ebe
00000070: 1517 ed3e 7f75 bb3e 00b4 653f 45f6 7abd
00000080: 84fe 54c0 4ab1 23bd 5fd9 00be a528 f3bd
00000090: 08eb 993d c4cb 263f f401 b8bd 99e9 d83e
000000a0: 8973 69bf 3db0 fabe 0339 503c 06c1 f13e
000000b0: 6da0 e9bd a32d 65be 2649 b13f 798b 21be
000000c0: 608e 563f c04a c93e 56c3 6b3d 16af b8be
000000d0: c114 8c3e d66f 5040 0f5c 2c3d 544d 833f
000000e0: b502 84bf 8b00 02c0 c46d 1a3f ba0c 0f40
000000f0: dfb6 30bf 426e 08be 2588 303f 9956 0cbf
00000100: 9163 2e3f c687 2bbd d2fe f0be f36b 1abf
00000110: a2b6 aebe dc80 fe3f 925b 133e 3d8e da3d
00000120: 11d4 6abf e53f 89bf be6f 903f f2de 993f
00000130: ef95 53bf 1cbf 3e3e e1fb 5f3d c269 833e
00000140: 32f2 babf a22c 17bf b3d4 c83e 684f 0cc0
00000150: c898 84be 9430 01bf 50c7 863e cc44 dabe
00000160: b03f d8bf b787 663f d6f2 2c3f a4ed a3bd
00000170: f536 01bf 5012 063f 63c4 a13e 1582 91bf
00000180: 4b5c 01bf a162 523f e4b6 acbe 974c f0be
00000190: 3bf1 38be b46d 8bbf 5b85 5f3d 7a09 6ebf
000001a0: 9712 2c3f 1962 263e 4c4d c03f 466d 3c3f
000001b0: 78a1 8fbf 08b9 ca3e 655e 37bf bed8 73bf
000001c0: 29e9 a3bf 4967 8a3c a80f 3d3e e447 9a3f
000001d0: cf47 18bf 7977 b1be e5c8 813f d50b 21bf
000001e0: 2170 2b3f 5e28 c53e 7a0d 7640 aee4 8c3f
000001f0: d6e1 e7bf e848 4a3e 8108 f33e 40bf a1bf
00000200: 265e 69bf 14c2 04bf 08df 873e 3da4 a13f
00000210: 3cde fdbe bec0 303f 31ce 853e 834d 80bf
00000220: aa5a 793f ae8c d33e 96dc 933f 1a4f 6b3e
00000230: 6694 59bf 615f 153f 2cb5 913d e358 f6bf
00000240: 5f28 69bf 89f5 8cbf 2b82 9a3f 856f 12bd
00000250: d32f f4bd f2a1 323f 1750 b13d fc36 5bbf
00000260: 6f5b 853f e59a 22bf d00e b23e e5ce af3f
00000270: 4052 97bf 8b87 c9bd f39f f93e 1048 d5bf
00000280: dc62 04bf 5311 84be bf3c 813e c193 083f
00000290: 03e0 84be c5a1 d63f c04f 373f 02d2 1bbf
000002a0: 5988 673f 4030 a03e 1ee5 67bf 574e b2bd
000002b0: f22b 4abf 4738 05bf c143 c2be 188b a2be
000002c0: 2c77 52bf 3742 c63e ed05 763f b650 803f
000002d0: 9996 ff3c 6cdc 3240 b476 af3e 876b 283f
000002e0: 718f a93e d62d 753f 7427 1540 29b0 823f
000002f0: 3e06 8ebf 4423 c43e c018 c3bd 7530 973f
00000300: c553 4dbf d8ce 04bf ce34 a7be 5778 cd3e
00000310: b7c7 69be 0041 a53f 9b99 eb3e 663c 1b3f
00000320: 7b39 ce3e fba3 7bbf 98b1 e7bf 19f3 81be
00000330: 7672 95bc e027 18bf b848 03bf ab07 da3f
00000340: 7ac7 d6bf eff4 b8bd c2fb 78bf 0a20 62bd
00000350: 6515 73be efe9 da3f 768f 663f 3894 bebe
00000360: 84e3 86be f59c 49bf e40f 39c0 a3cd d4be
00000370: d559 26bd d273 b4be 731d b8be 6d6a 6b3f
00000380: 63b3 3fbf 390d 623f a209 953d bda5 003f
00000390: ddd2 8ebe eb02 1ebf 73b0 1f3f a525 f23c
000003a0: de3b 1e3e 6bcd 57be e6ab d8bf ce1b 5cbf
000003b0: 6380 363f 3932 b63d e23c 5dbf d44e a03f
000003c0: e06a 1fc0 0de0 bebe c1a8 fabd 21c8 e13d
000003d0: 3946 78bf ba5e 38bf 8ce0 f43e bb67 01bf
000003e0: 4a05 57be c227 aabf 1026 6f3f 5c66 653f
000003f0: 1c32 1fbf da49 db3f f418 b2bf e731 1c3f
-2.3642056 -0.051594354 0.44939756 0.14612368 -0.08474156 0.7388573 -0.07538521 -0.096345305
-0.4453725 -0.24209857 -0.6924421 0.2712836 0.47498286 -0.32508168 0.74022186 -0.4663003
-3.1814823 0.19136292 -0.7304173 -0.4396474 -0.34828058 0.06131936 0.1942797 0.08633833
-0.2520613 -0.6260622 -0.39252332 -0.15471874 0.46306673 0.3661308 0.89727783 -0.061270017
-3.3280344 -0.039963998 -0.1258292 -0.11872987 0.07515532 0.6515467 -0.089847475 0.4236572
-0.9119192 -0.48962584 0.012708905 0.47217578 -0.11407552 -0.2238069 1.3850448 -0.15775861
0.83810997 0.39314842 0.057559334 -0.3607108 0.27359584 3.256826 0.04207998 1.0257974
-1.0313326 -2.0312831 0.6032374 2.2351518 -0.6902904 -0.1332331 0.6895774 -0.5481964
0.68120676 -0.04187753 -0.47069412 -0.6032097 -0.34123713 1.9883075 0.143904 0.10671661
-0.9172984 -1.0722624 1.1284101 1.2021163 -0.82650656 0.1862759 0.05468357 0.25666624
-1.4605162 -0.5905248 0.39224777 -2.1923466 -0.25897813 -0.5046475 0.26323938 -0.42630613
-1.6894436 0.90050834 0.6755804 -0.08004311 -0.5047448 0.5237169 0.31595144 -1.1367823
-0.5053145 0.82181746 -0.33733284 -0.46933433 -0.18060772 -1.0892854 0.054570537 -0.9298321
0.67215866 0.16248359 1.5023589 0.7360424 -1.1221151 0.39594293 -0.7162841 -0.952526
-1.280553 0.016894953 0.18463004 1.2053189 -0.5948457 -0.34661463 1.0139433 -0.6290868
0.6696797 0.3850736 3.8445725 1.1007288 -1.8115795 0.19754374 0.47467425 -1.263649
-0.91159284 -0.5185864 0.26537347 1.2628247 -0.49583614 0.690441 0.26133874 -1.0023655
0.9740397 0.41318268 1.1551692 0.22979394 -0.84992063 0.5834866 0.07114634 -1.9245876
-0.91077226 -1.1012431 1.2070974 -0.035750885 -0.11923184 0.6977836 0.08657854 -0.85630774
1.0418528 -0.635176 0.34776926 1.3735014 -1.1821976 -0.09840306 0.48754844 -1.6662617
-0.5171335 -0.25794467 0.25241658 0.53350455 -0.25952157 1.6768118 0.71606064 -0.6086732
0.90442425 0.31286812 -0.9058398 -0.087063484 -0.78973305 -0.52039 -0.37942317 -0.31746745
-0.8221309 0.38722393 0.9610279 1.0024631 0.03119974 2.7947035 0.3427025 0.65789074
0.3311725 0.95773065 2.330533 1.021001 -1.1095655 0.38308156 -0.09526205 1.1811663
-0.8020595 -0.5187812 -0.32657474 0.40130875 -0.22830091 1.2910461 0.4601563 0.60639036
0.4027823 -0.9829709 -1.8101072 -0.2538078 -0.018243056 -0.59435844 -0.51282835 1.703359
-1.6779625 -0.090310924 -0.9725915 -0.055206336 -0.2373863 1.7102641 0.90062654 -0.37222457
-0.26345456 -0.7875512 -2.891595 -0.41563138 -0.040613014 -0.35244614 -0.35959968 0.9195927
-0.748831 0.88301426 0.07277228 0.50252897 -0.2789525 -0.617232 0.62378615 0.029558966
0.15452525 -0.21074454 -1.6927459 -0.85979927 0.7128965 0.08896298 -0.86421025 1.2524056
-2.4908981 -0.37280312 -0.122392185 0.110245 -0.9698215 -0.7201954 0.47827566 -0.50548905
-0.20998111 -1.3293383 0.93417454 0.89609313 -0.62185836 1.7131913 -1.3913865 0.61013645

fc_layer.bias f4 [32]
00000000: df78 d7be b603 53bf 0373 52be 9a98 5cbd
00000010: 2459 cfbd 582d 18bf ea8a d33c 5e52 9b3e
00000020: 4f95 c6bc 8709 3cbd ffe7 8dbd d3e7 393f
00000030: 38fe 64be c750 14bf 55a4 38be a3c3 cebe
00000040: 1329 2fbe 2240 f6bb 59f0 163d 6c68 06bd
00000050: a4d1 97bd baa5 afbd 27db 9b3e 2654 74bf
00000060: 6eeb f6be 4050 9f3e 635b b73e 175b ebbe
00000070: 4f2e e03e 4940 a2bf e433 b5be 49e2 0d3f
-0.42084405 -0.8242754 -0.20551686 -0.05385647 -0.10124424 -0.5944419 0.025823075 0.3033628
-0.024241118 -0.045907523 -0.06929015 0.7261936 -0.22362602 -0.57935756 -0.18031438 -0.40383634
-0.17105512 -0.0075149694 0.036850307 -0.03281443 -0.07413033 -0.08576532 0.30440637 -0.954409
-0.48226494 0.31115913 0.3581191 -0.45967934 0.4378533 -1.2675868 -0.35391152 0.5542341

conv1.weight f4 [2, 1, 4]
00000000: d7d7 82c0 3f95 b3bf 1a77 943e 6e9e 2e40
00000010: 30aa 40c0 2740 f8bf 5a84 963c aaa2 3d40
-4.0888476 -1.4029921 0.28997117 2.7284198 -3.0103874 -1.9394578 0.018373657 2.9630532

conv1.bias f4 [2]
00000000: 674c 103f 887f 4ebc
0.5636658 -0.012603648

conv2.weight f4 [4, 2, 2]
00000000: 54c6 50bf 71af 65c0 37a5 e7bf 9fd7 48c0
00000010: 1426 c73e 585d 6140 674e b13f 8691 7640
00000020: 71f9 5f3e aaba 7bc0 7c52 29bf c946 7fc0
00000030: 98c3 a23c 5df7 6840 b51d af3f a6ab 6a40
-0.81552625 -3.588833 -1.8097295 -3.1381605 0.3889624 3.5213223 1.3852051 3.852632
0.21872498 -3.933268 -0.66141486 -3.9886954 0.019868657 3.6400979 1.3680941 3.6667266

conv2.bias f4 [4]
00000000: 3ef3 2340 d6c1 21c0 3cd5 1240 51f8 18c0
2.5617213 -2.5274558 2.2942648 -2.390156

conv3.weight f4 [4, 4, 1]
00000000: eff2 5540 8ad4 61c0 a154 7e40 2d47 37c0
00000010: 2e47 6cc0 8682 6440 b0bd 90c0 ccde 5e40
00000020: c757 89c0 a9b6 4540 fb26 90c0 f9b0 6040
00000030: ae5c 5dc0 dce3 5e40 e4af 64c0 960f 5440
3.3429525 -3.5285974 3.9739153 -2.8637192 -3.6918445 3.5704665 -4.523155 3.4823484
-4.291965 3.0892737 -4.5047584 3.5108016 -3.4587817 3.4826574 -3.5732355 3.3134513

conv3.bias f4 [4]
00000000: 8862 7b3f 0225 72bf 0201 e5be a13e abbf
0.9819722 -0.9458772 -0.4472733 -1.3378488

conv4.weight f4 [1, 4, 1]
00000000: 28ef c1c0 914e 9c40 0b35 9640 4185 9340
-6.060444 4.8845906 4.693975 4.6100163
